…
        for layer in winning_ticket_model.trainable_weights:
            vgg_19_np_wts.append(layer.numpy())
    
    
        len(vgg_19_np_wts)
        # 68
        
        # Initialize a model-
        model = vgg_nn()
        
        len(model.trainable_weights)
        # 68
        
        model.summary()
        '''
        Model: ""sequential_6""
        _________________________________________________________________
        Layer (type)                 Output Shape              Param #   
        =================================================================
        conv2d_96 (Conv2D)           (None, 32, 32, 64)        1792      
        _________________________________________________________________
        dropout_78 (Dropout)         (None, 32, 32, 64)        0         
        _________________________________________________________________
        conv2d_97 (Conv2D)           (None, 32, 32, 64)        36928     
        _________________________________________________________________
        batch_normalization_96 (Batc (None, 32, 32, 64)        256       
        _________________________________________________________________
        max_pooling2d_30 (MaxPooling (None, 16, 16, 64)        0         
        _________________________________________________________________
        conv2d_98 (Conv2D)           (None, 16, 16, 128)       73856     
        _________________________________________________________________
        batch_normalization_97 (Batc (None, 16, 16, 128)       512       
        _________________________________________________________________
        dropout_79 (Dropout)         (None, 16, 16, 128)       0         
        _________________________________________________________________
        conv2d_99 (Conv2D)           (None, 16, 16, 128)       147584    
        _________________________________________________________________
        batch_normalization_98 (Batc (None, 16, 16, 128)       512       
        _________________________________________________________________
        max_pooling2d_31 (MaxPooling (None, 8, 8, 128)         0         
        _________________________________________________________________
        conv2d_100 (Conv2D)          (None, 8, 8, 256)         295168    
        _________________________________________________________________
        batch_normalization_99 (Batc (None, 8, 8, 256)         1024      
        _________________________________________________________________
        dropout_80 (Dropout)         (None, 8, 8, 256)         0         
        _________________________________________________________________
        conv2d_101 (Conv2D)          (None, 8, 8, 256)         590080    
        _________________________________________________________________
        batch_normalization_100 (Bat (None, 8, 8, 256)         1024      
        _________________________________________________________________
        dropout_81 (Dropout)         (None, 8, 8, 256)         0         
        _________________________________________________________________
        conv2d_102 (Conv2D)          (None, 8, 8, 256)         590080    
        _________________________________________________________________
        batch_normalization_101 (Bat (None, 8, 8, 256)         1024      
        _________________________________________________________________
        dropout_82 (Dropout)         (None, 8, 8, 256)         0         
        _________________________________________________________________
        conv2d_103 (Conv2D)          (None, 8, 8, 256)         590080    
        _________________________________________________________________
        batch_normalization_102 (Bat (None, 8, 8, 256)         1024      
        _________________________________________________________________
        max_pooling2d_32 (MaxPooling (None, 4, 4, 256)         0         
        _________________________________________________________________
        conv2d_104 (Conv2D)          (None, 4, 4, 512)         1180160   
        _________________________________________________________________
        batch_normalization_103 (Bat (None, 4, 4, 512)         2048      
        _________________________________________________________________
        dropout_83 (Dropout)         (None, 4, 4, 512)         0         
        _________________________________________________________________
        conv2d_105 (Conv2D)          (None, 4, 4, 512)         2359808   
        _________________________________________________________________
        batch_normalization_104 (Bat (None, 4, 4, 512)         2048      
        _________________________________________________________________
        dropout_84 (Dropout)         (None, 4, 4, 512)         0         
        _________________________________________________________________
        conv2d_106 (Conv2D)          (None, 4, 4, 512)         2359808   
        _________________________________________________________________
        batch_normalization_105 (Bat (None, 4, 4, 512)         2048      
        _________________________________________________________________
        dropout_85 (Dropout)         (None, 4, 4, 512)         0         
        _________________________________________________________________
        conv2d_107 (Conv2D)          (None, 4, 4, 512)         2359808   
        _________________________________________________________________
        batch_normalization_106 (Bat (None, 4, 4, 512)         2048      
        _________________________________________________________________
        max_pooling2d_33 (MaxPooling (None, 2, 2, 512)         0         
        _________________________________________________________________
        conv2d_108 (Conv2D)          (None, 2, 2, 512)         2359808   
        _________________________________________________________________
        batch_normalization_107 (Bat (None, 2, 2, 512)         2048      
        _________________________________________________________________
        dropout_86 (Dropout)         (None, 2, 2, 512)         0         
        _________________________________________________________________
        conv2d_109 (Conv2D)          (None, 2, 2, 512)         2359808   
        _________________________________________________________________
        batch_normalization_108 (Bat (None, 2, 2, 512)         2048      
        _________________________________________________________________
        dropout_87 (Dropout)         (None, 2, 2, 512)         0         
        _________________________________________________________________
        conv2d_110 (Conv2D)          (None, 2, 2, 512)         2359808   
        _________________________________________________________________
        batch_normalization_109 (Bat (None, 2, 2, 512)         2048      
        _________________________________________________________________
        dropout_88 (Dropout)         (None, 2, 2, 512)         0         
        _________________________________________________________________
        conv2d_111 (Conv2D)          (None, 2, 2, 512)         2359808   
        _________________________________________________________________
        batch_normalization_110 (Bat (None, 2, 2, 512)         2048      
        _________________________________________________________________
        max_pooling2d_34 (MaxPooling (None, 1, 1, 512)         0         
        _________________________________________________________________
        dropout_89 (Dropout)         (None, 1, 1, 512)         0         
        _________________________________________________________________
        flatten_6 (Flatten)          (None, 512)               0         
        _________________________________________________________________
        dense_12 (Dense)             (None, 512)               262656    
        _________________________________________________________________
        batch_normalization_111 (Bat (None, 512)               2048      
        _________________________________________________________________
        dropout_90 (Dropout)         (None, 512)               0         
        _________________________________________________________________
        dense_13 (Dense)             (None, 10)                5130      
        =================================================================
        Total params: 20,315,978
        Trainable params: 20,304,074
        Non-trainable params: 11,904
        _________________________________________________________________
        '''

&amp;#x200B;

But, when I try to load the numpy array Python3 list as follows, it gives a ValueError-

&amp;#x200B;

        model.set_weights(vgg_19_np_wts)
…
