…
I used ray-casting to simulate the field-of-view of the agent. It starts with a blank screen and walls automatically appears in a radius of X pixels around the agent.

&amp;#x200B;

https://preview.redd.it/1ki16bu2c9i51.png?width=506&amp;format=png&amp;auto=webp&amp;s=8bda1eadce4f86f258acf8fae79d33ee3612d5d0

I tried using DQN with different enhancements, the code for those are from the book's author here: [https://github.com/PacktPublishing/Deep-Reinforcement-Learning-Hands-On-Second-Edition/tree/master/Chapter08](https://github.com/PacktPublishing/Deep-Reinforcement-Learning-Hands-On-Second-Edition/tree/master/Chapter08)

&amp;#x200B;

The model for the neural network is the following:

&gt;(0): Conv2d(1, 32, kernel\_size=(8, 8), stride=(4, 4))  
&gt;  
&gt;(1): ReLU()  
&gt;  
&gt;(2): Conv2d(32, 64, kernel\_size=(4, 4), stride=(2, 2))  
&gt;  
&gt;(3): ReLU()  
&gt;  
&gt;(4): Conv2d(64, 64, kernel\_size=(3, 3), stride=(1, 1))  
&gt;  
&gt;(5): ReLU()  
&gt;  
&gt;  
&gt;  
&gt;(0): Linear(in\_features=5184, out\_features=512, bias=True)  
&gt;  
&gt;(1): ReLU()  
&gt;  
&gt;(2): Linear(in\_features=512, out\_features=4, bias=True)

&amp;#x200B;

Input to the neural network:

\- 1 frame of the environment: \[1, 1, 100, 100\] normalized from \[0, 255\] to \[0, 1\]

(I did not use frame stacking because there is no moving objects, except the agent at each state)

&amp;#x200B;

Hyperparameters (For basic DQN with replay buffer and target net):

\- lr: 10e-3

\- Replay size: 800 000 (max I can do with my ram)
…
1. continuous state space (but could be discretized)
2. continuous action space.

I am not looking for answers, but for pointers on how to estimate it.",reinforcementlearning,victorialena,False,/r/reinforcementlearning/comments/haeglh/amount_of_data_for_inverse_rl_irl/
Help with training an agent to play MsPacman,1592337399," I'm new to RL and I'm attempting to train an RL agent to play MsPacman in PyTorch. I've adapted the code from this [tutorial](https://pytorch.org/tutorials/intermediate/reinforcement_q_learning.html) on the PyTorch page for my problem. The DQN has the following architecture: 

    DQN(
      (conv1): Conv2d(1, 32, kernel_size=(8, 8), stride=(4, 4), padding=(2, 2))
      (bn1): BatchNorm2d(32, eps=1e-05, momentum=0.1, affine=True, track_running_stats=True)
      (conv2): Conv2d(32, 64, kernel_size=(4, 4), stride=(2, 2), padding=(1, 1))
      (bn2): BatchNorm2d(64, eps=1e-05, momentum=0.1, affine=True, track_running_stats=True)
      (conv3): Conv2d(64, 64, kernel_size=(3, 3), stride=(1, 1), padding=(1, 1))
      (bn3): BatchNorm2d(64, eps=1e-05, momentum=0.1, affine=True, track_running_stats=True)
      (linear1): Linear(in_features=7040, out_features=512, bias=True)
      (linear2): Linear(in_features=512, out_features=9, bias=True)
    )

I'm using the actor (policy) and critic (target) method with replay memory which has the following settings:

* **Replay Buffer**: 100,000
* **Target Update**: Every 10,000 steps
* **Bath Size**: 128
* **Discount Rate**: 0.999

For the exploration trade-off I'm using epsilon-greedy with the following curve:

https://preview.redd.it/k8w2xa1nub551.png?width=388&amp;format=png&amp;auto=webp&amp;s=40b5b529c9e29d0b5bd4da9407e22517fd5e35a2
…
I have implemented a DDPG Algorithm for this, according to the [paper](https://arxiv.org/abs/1509.02971) for continuous control tasks it is suitable provided there is a sufficient number of examples provided.



State space: 33
===

The observation space consists of 33 variables corresponding to the position, rotation, velocity, and angular velocities of the arm.

Action space: 4
===

Each action is a vector with four numbers, corresponding to torque applicable to two joints. Every entry in the action vector should be a number between -1 and 1.


Network Architecture:
===
### Actor
```
Model(
    (fc1): Linear(in_features=33, out_features=128, bias=True)
    (fc2): Linear(in_features=128, out_features=128, bias=True)   
    (fc3): Linear(in_features=128, out_features=4, bias=True)   
    (bn1): BatchNorm1d(128, eps=1e-05, momentum=0.1, affine=True, track_running_stats=True)   
    (bn2): BatchNorm1d(128, eps=1e-05, momentum=0.1, affine=True, track_running_stats=True)
)
```

### Critic
```
Critic(
  (fcs1): Linear(in_features=33, out_features=128, bias=True)
  (fc2): Linear(in_features=132, out_features=128, bias=True)
  (fc3): Linear(in_features=128, out_features=1, bias=True)
  (bn1): BatchNorm1d(128, eps=1e-05, momentum=0.1, affine=True, track_running_stats=True)
  (bn2): BatchNorm1d(128, eps=1e-05, momentum=0.1, affine=True, track_running_stats=True)
)
```

The average reward over 100 episodes so far:
```
Episode 100	Average Score: 3.42	Time: 19.618900299072266
Episode 200	Average Score: 13.52	Time: 20.195945739746094
Episode 300	Average Score: 27.03	Time: 20.565974235534668
Episode 400	Average Score: 25.36	Time: 20.646285295486453
Episode 500	Average Score: 27.59	Time: 20.215036630630493
…
